…
input_vox (InputLayer)          [(None, 199, 164, 56 0                                            
__________________________________________________________________________________________________
conv3d (Conv3D)                 (None, 100, 82, 283, 39960       input_vox[0][0]                  
__________________________________________________________________________________________________
spatial_dropout3d (SpatialDropo (None, 100, 82, 283, 0           conv3d[0][0]                     
__________________________________________________________________________________________________
input_fluoro_1 (InputLayer)     [(None, 128, 128, 1) 0                                            
__________________________________________________________________________________________________
input_fluoro_2 (InputLayer)     [(None, 128, 128, 1) 0                                            
__________________________________________________________________________________________________
batch_normalization (BatchNorma (None, 100, 82, 283, 120         spatial_dropout3d[0][0]          
__________________________________________________________________________________________________
lambda (Lambda)                 (None, 128, 128, 1)  0           input_fluoro_1[0][0]             
__________________________________________________________________________________________________
lambda_1 (Lambda)               (None, 128, 128, 1)  0           input_fluoro_2[0][0]             
__________________________________________________________________________________________________
conv3d_1 (Conv3D)               (None, 50, 41, 95, 3 112530      batch_normalization[0][0]        
__________________________________________________________________________________________________
conv2d (Conv2D)                 (None, 64, 64, 30)   780         lambda[0][0]                     
__________________________________________________________________________________________________
conv2d_3 (Conv2D)               (None, 64, 64, 30)   780         lambda_1[0][0]                   
__________________________________________________________________________________________________
max_pooling3d (MaxPooling3D)    (None, 25, 20, 47, 3 0           conv3d_1[0][0]                   
__________________________________________________________________________________________________
spatial_dropout2d (SpatialDropo (None, 64, 64, 30)   0           conv2d[0][0]                     
__________________________________________________________________________________________________
spatial_dropout2d_3 (SpatialDro (None, 64, 64, 30)   0           conv2d_3[0][0]                   
__________________________________________________________________________________________________
batch_normalization_1 (BatchNor (None, 25, 20, 47, 3 120         max_pooling3d[0][0]              
__________________________________________________________________________________________________
batch_normalization_6 (BatchNor (None, 64, 64, 30)   120         spatial_dropout2d[0][0]          
__________________________________________________________________________________________________
batch_normalization_10 (BatchNo (None, 64, 64, 30)   120         spatial_dropout2d_3[0][0]        
__________________________________________________________________________________________________
conv3d_2 (Conv3D)               (None, 13, 10, 24, 4 32440       batch_normalization_1[0][0]      
__________________________________________________________________________________________________
conv2d_1 (Conv2D)               (None, 32, 32, 40)   10840       batch_normalization_6[0][0]      
__________________________________________________________________________________________________
conv2d_4 (Conv2D)               (None, 32, 32, 40)   10840       batch_normalization_10[0][0]     
__________________________________________________________________________________________________
spatial_dropout3d_1 (SpatialDro (None, 13, 10, 24, 4 0           conv3d_2[0][0]                   
__________________________________________________________________________________________________
max_pooling2d (MaxPooling2D)    (None, 16, 16, 40)   0           conv2d_1[0][0]                   
__________________________________________________________________________________________________
max_pooling2d_2 (MaxPooling2D)  (None, 16, 16, 40)   0           conv2d_4[0][0]                   
__________________________________________________________________________________________________
batch_normalization_2 (BatchNor (None, 13, 10, 24, 4 160         spatial_dropout3d_1[0][0]        
__________________________________________________________________________________________________
batch_normalization_7 (BatchNor (None, 16, 16, 40)   160         max_pooling2d[0][0]              
__________________________________________________________________________________________________
batch_normalization_11 (BatchNo (None, 16, 16, 40)   160         max_pooling2d_2[0][0]            
__________________________________________________________________________________________________
conv3d_3 (Conv3D)               (None, 7, 5, 12, 50) 54050       batch_normalization_2[0][0]      
__________________________________________________________________________________________________
conv2d_2 (Conv2D)               (None, 8, 8, 50)     18050       batch_normalization_7[0][0]      
__________________________________________________________________________________________________
conv2d_5 (Conv2D)               (None, 8, 8, 50)     18050       batch_normalization_11[0][0]     
__________________________________________________________________________________________________
conv3d_4 (Conv3D)               (None, 4, 3, 6, 50)  20050       conv3d_3[0][0]                   
__________________________________________________________________________________________________
spatial_dropout2d_1 (SpatialDro (None, 8, 8, 50)     0           conv2d_2[0][0]                   
__________________________________________________________________________________________________
spatial_dropout2d_4 (SpatialDro (None, 8, 8, 50)     0           conv2d_5[0][0]                   
__________________________________________________________________________________________________
spatial_dropout3d_2 (SpatialDro (None, 4, 3, 6, 50)  0           conv3d_4[0][0]                   
__________________________________________________________________________________________________
batch_normalization_8 (BatchNor (None, 8, 8, 50)     200         spatial_dropout2d_1[0][0]        
__________________________________________________________________________________________________
batch_normalization_12 (BatchNo (None, 8, 8, 50)     200         spatial_dropout2d_4[0][0]        
__________________________________________________________________________________________________
batch_normalization_4 (BatchNor (None, 4, 3, 6, 50)  200         spatial_dropout3d_2[0][0]        
__________________________________________________________________________________________________
separable_conv2d (SeparableConv (None, 4, 4, 60)     3510        batch_normalization_8[0][0]      
__________________________________________________________________________________________________
separable_conv2d_3 (SeparableCo (None, 4, 4, 60)     3510        batch_normalization_12[0][0]     
__________________________________________________________________________________________________
conv3d_5 (Conv3D)               (None, 2, 2, 3, 50)  20050       batch_normalization_4[0][0]      
__________________________________________________________________________________________________
max_pooling2d_1 (MaxPooling2D)  (None, 2, 2, 60)     0           separable_conv2d[0][0]           2019-09-05 22:43:34.562365: I tensorflow/core/platform/cpu_feature_guard.cc:142] Your CPU supports instructions that this TensorFlow binary was not compiled to use: SSE4.1 SSE4.2 AVX AVX2 FMA
2019-09-05 22:43:35.754956: I tensorflow/core/platform/profile_utils/cpu_utils.cc:94] CPU Frequency: 2599825000 Hz
2019-09-05 22:43:35.767767: I tensorflow/compiler/xla/service/service.cc:168] XLA service 0x565022f79250 executing computations on platform Host. Devices:
…
2019-09-05 22:43:39.165513: I tensorflow/compiler/xla/service/service.cc:175]   StreamExecutor device (0): Tesla P100-PCIE-16GB, Compute Capability 6.0
2019-09-05 22:43:39.165531: I tensorflow/compiler/xla/service/service.cc:175]   StreamExecutor device (1): Tesla P100-PCIE-16GB, Compute Capability 6.0
2019-09-05 22:43:56.230046: I tensorflow/stream_executor/platform/default/dso_loader.cc:42] Successfully opened dynamic library libcublas.so.9.0
2019-09-05 22:43:57.140137: I tensorflow/stream_executor/platform/default/dso_loader.cc:42] Successfully opened dynamic library libcudnn.so.7

__________________________________________________________________________________________________
max_pooling2d_3 (MaxPooling2D)  (None, 2, 2, 60)     0           separable_conv2d_3[0][0]         
__________________________________________________________________________________________________
batch_normalization_5 (BatchNor (None, 2, 2, 3, 50)  200         conv3d_5[0][0]                   
__________________________________________________________________________________________________
batch_normalization_9 (BatchNor (None, 2, 2, 60)     240         max_pooling2d_1[0][0]            
__________________________________________________________________________________________________
batch_normalization_13 (BatchNo (None, 2, 2, 60)     240         max_pooling2d_3[0][0]            
__________________________________________________________________________________________________
conv3d_6 (Conv3D)               (None, 2, 2, 3, 50)  20050       batch_normalization_5[0][0]      
__________________________________________________________________________________________________
separable_conv2d_1 (SeparableCo (None, 2, 2, 60)     4200        batch_normalization_9[0][0]      
__________________________________________________________________________________________________
separable_conv2d_4 (SeparableCo (None, 2, 2, 60)     4200        batch_normalization_13[0][0]     
__________________________________________________________________________________________________
conv3d_7 (Conv3D)               (None, 2, 2, 3, 30)  1530        conv3d_6[0][0]                   
__________________________________________________________________________________________________
spatial_dropout2d_2 (SpatialDro (None, 2, 2, 60)     0           separable_conv2d_1[0][0]         
__________________________________________________________________________________________________
spatial_dropout2d_5 (SpatialDro (None, 2, 2, 60)     0           separable_conv2d_4[0][0]         
__________________________________________________________________________________________________
flatten (Flatten)               (None, 360)          0           conv3d_7[0][0]                   
__________________________________________________________________________________________________
separable_conv2d_2 (SeparableCo (None, 2, 2, 30)     2370        spatial_dropout2d_2[0][0]        
__________________________________________________________________________________________________
separable_conv2d_5 (SeparableCo (None, 2, 2, 30)     2370        spatial_dropout2d_5[0][0]        
__________________________________________________________________________________________________
dense (Dense)                   (None, 300)          108300      flatten[0][0]                    
__________________________________________________________________________________________________
flatten_1 (Flatten)             (None, 120)          0           separable_conv2d_2[0][0]         
__________________________________________________________________________________________________
flatten_2 (Flatten)             (None, 120)          0           separable_conv2d_5[0][0]         
__________________________________________________________________________________________________
input_cali (InputLayer)         [(None, 6)]          0                                            
__________________________________________________________________________________________________
dense_1 (Dense)                 (None, 250)          75250       dense[0][0]                      
__________________________________________________________________________________________________
dense_4 (Dense)                 (None, 120)          14520       flatten_1[0][0]                  
__________________________________________________________________________________________________
dense_7 (Dense)                 (None, 120)          14520       flatten_2[0][0]                  
__________________________________________________________________________________________________
dense_10 (Dense)                (None, 20)           140         input_cali[0][0]                 
__________________________________________________________________________________________________
dense_2 (Dense)                 (None, 250)          62750       dense_1[0][0]                    
__________________________________________________________________________________________________
dense_5 (Dense)                 (None, 120)          14520       dense_4[0][0]                    
__________________________________________________________________________________________________
dense_8 (Dense)                 (None, 120)          14520       dense_7[0][0]                    
__________________________________________________________________________________________________
dense_11 (Dense)                (None, 20)           420         dense_10[0][0]                   
__________________________________________________________________________________________________
dense_3 (Dense)                 (None, 200)          50200       dense_2[0][0]                    
__________________________________________________________________________________________________
dense_6 (Dense)                 (None, 80)           9680        dense_5[0][0]                    
__________________________________________________________________________________________________
dense_9 (Dense)                 (None, 80)           9680        dense_8[0][0]                    
__________________________________________________________________________________________________
dense_12 (Dense)                (None, 20)           420         dense_11[0][0]                   
__________________________________________________________________________________________________
concatenate (Concatenate)       (None, 380)          0           dense_3[0][0]                    
                                                                 dense_6[0][0]                    
                                                                 dense_9[0][0]                    
                                                                 dense_12[0][0]                   
__________________________________________________________________________________________________
batch_normalization_14 (BatchNo (None, 380)          1520        concatenate[0][0]                
__________________________________________________________________________________________________
dense_13 (Dense)                (None, 250)          95250       batch_normalization_14[0][0]     
__________________________________________________________________________________________________
dropout (Dropout)               (None, 250)          0           dense_13[0][0]                   
__________________________________________________________________________________________________
batch_normalization_15 (BatchNo (None, 250)          1000        dropout[0][0]                    
__________________________________________________________________________________________________
dense_14 (Dense)                (None, 150)          37650       batch_normalization_15[0][0]     
__________________________________________________________________________________________________
dense_15 (Dense)                (None, 100)          15100       dense_14[0][0]                   
__________________________________________________________________________________________________
dropout_1 (Dropout)             (None, 100)          0           dense_15[0][0]                   
__________________________________________________________________________________________________
dense_16 (Dense)                (None, 20)           2020        dropout_1[0][0]                  
__________________________________________________________________________________________________
main_output (Dense)             (None, 6)            126         dense_16[0][0]                   
==================================================================================================
Total params: 909,986
Trainable params: 907,606
Non-trainable params: 2,380
__________________________________________________________________________________________________


completely loaded...


Train on 4074 samples, validate on 1018 samples
Epoch 1/50
…
