…
Call initializer instance with the dtype argument instead of passing it to the constructor
W0907 23:47:34.764202 139854510892864 deprecation.py:323]
Instructions for updating:
Deprecated in favor of operator or tf.math.divide.
~/fluoro/code/jupyt/vox_fluoro/vox_fluoro_res
Model: "model"
__________________________________________________________________________________________________
Layer (type)                    Output Shape         Param #     Connected to                     
==================================================================================================
input_fluoro_1 (InputLayer)     [(None, 128, 128, 1) 0                                            
__________________________________________________________________________________________________
input_fluoro_2 (InputLayer)     [(None, 128, 128, 1) 0                                            
__________________________________________________________________________________________________
lambda (Lambda)                 (None, 128, 128, 1)  0           input_fluoro_1[0][0]             
__________________________________________________________________________________________________
lambda_1 (Lambda)               (None, 128, 128, 1)  0           input_fluoro_2[0][0]             
__________________________________________________________________________________________________
batch_normalization_22 (BatchNo (None, 128, 128, 1)  4           lambda[0][0]                     
__________________________________________________________________________________________________
batch_normalization_37 (BatchNo (None, 128, 128, 1)  4           lambda_1[0][0]                   
__________________________________________________________________________________________________
conv2d (Conv2D)                 (None, 64, 64, 30)   780         batch_normalization_22[0][0]     
__________________________________________________________________________________________________
conv2d_14 (Conv2D)              (None, 64, 64, 30)   780         batch_normalization_37[0][0]     
__________________________________________________________________________________________________
batch_normalization_23 (BatchNo (None, 64, 64, 30)   120         conv2d[0][0]                     
__________________________________________________________________________________________________
batch_normalization_38 (BatchNo (None, 64, 64, 30)   120         conv2d_14[0][0]                  
__________________________________________________________________________________________________
spatial_dropout2d (SpatialDropo (None, 64, 64, 30)   0           batch_normalization_23[0][0]     
__________________________________________________________________________________________________
spatial_dropout2d_7 (SpatialDro (None, 64, 64, 30)   0           batch_normalization_38[0][0]     
__________________________________________________________________________________________________
conv2d_1 (Conv2D)               (None, 32, 32, 30)   22530       spatial_dropout2d[0][0]          
__________________________________________________________________________________________________
conv2d_15 (Conv2D)              (None, 32, 32, 30)   22530       spatial_dropout2d_7[0][0]        
__________________________________________________________________________________________________
average_pooling2d (AveragePooli (None, 16, 16, 30)   0           conv2d_1[0][0]                   
__________________________________________________________________________________________________
average_pooling2d_1 (AveragePoo (None, 16, 16, 30)   0           conv2d_15[0][0]                  
__________________________________________________________________________________________________
batch_normalization_24 (BatchNo (None, 16, 16, 30)   120         average_pooling2d[0][0]          
__________________________________________________________________________________________________
batch_normalization_39 (BatchNo (None, 16, 16, 30)   120         average_pooling2d_1[0][0]        
__________________________________________________________________________________________________
conv2d_2 (Conv2D)               (None, 16, 16, 30)   8130        batch_normalization_24[0][0]     
__________________________________________________________________________________________________
conv2d_16 (Conv2D)              (None, 16, 16, 30)   8130        batch_normalization_39[0][0]     
__________________________________________________________________________________________________
batch_normalization_25 (BatchNo (None, 16, 16, 30)   120         conv2d_2[0][0]                   
__________________________________________________________________________________________________
batch_normalization_40 (BatchNo (None, 16, 16, 30)   120         conv2d_16[0][0]                  
__________________________________________________________________________________________________
spatial_dropout2d_1 (SpatialDro (None, 16, 16, 30)   0           batch_normalization_25[0][0]     
__________________________________________________________________________________________________
spatial_dropout2d_8 (SpatialDro (None, 16, 16, 30)   0           batch_normalization_40[0][0]     
__________________________________________________________________________________________________
conv2d_3 (Conv2D)               (None, 16, 16, 30)   8130        spatial_dropout2d_1[0][0]        
__________________________________________________________________________________________________
conv2d_17 (Conv2D)              (None, 16, 16, 30)   8130        spatial_dropout2d_8[0][0]        
__________________________________________________________________________________________________
batch_normalization_26 (BatchNo (None, 16, 16, 30)   120         conv2d_3[0][0]                   
__________________________________________________________________________________________________
batch_normalization_41 (BatchNo (None, 16, 16, 30)   120         conv2d_17[0][0]                  
__________________________________________________________________________________________________
add_6 (Add)                     (None, 16, 16, 30)   0           batch_normalization_26[0][0]     
                                                                 batch_normalization_24[0][0]     
__________________________________________________________________________________________________
add_12 (Add)                    (None, 16, 16, 30)   0           batch_normalization_41[0][0]     
                                                                 batch_normalization_39[0][0]     
__________________________________________________________________________________________________
activation_6 (Activation)       (None, 16, 16, 30)   0           add_6[0][0]                      
__________________________________________________________________________________________________
activation_12 (Activation)      (None, 16, 16, 30)   0           add_12[0][0]                     
__________________________________________________________________________________________________
conv2d_4 (Conv2D)               (None, 16, 16, 30)   8130        activation_6[0][0]               
__________________________________________________________________________________________________
conv2d_18 (Conv2D)              (None, 16, 16, 30)   8130        activation_12[0][0]              
__________________________________________________________________________________________________
batch_normalization_27 (BatchNo (None, 16, 16, 30)   120         conv2d_4[0][0]                   
__________________________________________________________________________________________________
batch_normalization_42 (BatchNo (None, 16, 16, 30)   120         conv2d_18[0][0]                  
__________________________________________________________________________________________________
spatial_dropout2d_2 (SpatialDro (None, 16, 16, 30)   0           batch_normalization_27[0][0]     
__________________________________________________________________________________________________
spatial_dropout2d_9 (SpatialDro (None, 16, 16, 30)   0           batch_normalization_42[0][0]     
__________________________________________________________________________________________________
conv2d_5 (Conv2D)               (None, 16, 16, 30)   8130        spatial_dropout2d_2[0][0]        
__________________________________________________________________________________________________
conv2d_19 (Conv2D)              (None, 16, 16, 30)   8130        spatial_dropout2d_9[0][0]        
__________________________________________________________________________________________________
batch_normalization_28 (BatchNo (None, 16, 16, 30)   120         conv2d_5[0][0]                   
__________________________________________________________________________________________________
batch_normalization_43 (BatchNo (None, 16, 16, 30)   120         conv2d_19[0][0]                  
__________________________________________________________________________________________________
add_7 (Add)                     (None, 16, 16, 30)   0           activation_6[0][0]               
                                                                 batch_normalization_28[0][0]     
__________________________________________________________________________________________________
add_13 (Add)                    (None, 16, 16, 30)   0           activation_12[0][0]              
                                                                 batch_normalization_43[0][0]     
__________________________________________________________________________________________________
activation_7 (Activation)       (None, 16, 16, 30)   0           add_7[0][0]                      
__________________________________________________________________________________________________
activation_13 (Activation)      (None, 16, 16, 30)   0           add_13[0][0]                     
__________________________________________________________________________________________________
conv2d_6 (Conv2D)               (None, 16, 16, 30)   8130        activation_7[0][0]               
__________________________________________________________________________________________________
conv2d_20 (Conv2D)              (None, 16, 16, 30)   8130        activation_13[0][0]              
__________________________________________________________________________________________________
batch_normalization_29 (BatchNo (None, 16, 16, 30)   120         conv2d_6[0][0]                   
__________________________________________________________________________________________________
batch_normalization_44 (BatchNo (None, 16, 16, 30)   120         conv2d_20[0][0]                  
__________________________________________________________________________________________________
spatial_dropout2d_3 (SpatialDro (None, 16, 16, 30)   0           batch_normalization_29[0][0]     
__________________________________________________________________________________________________
spatial_dropout2d_10 (SpatialDr (None, 16, 16, 30)   0           batch_normalization_44[0][0]     
__________________________________________________________________________________________________
conv2d_7 (Conv2D)               (None, 16, 16, 30)   8130        spatial_dropout2d_3[0][0]        
__________________________________________________________________________________________________
conv2d_21 (Conv2D)              (None, 16, 16, 30)   8130        spatial_dropout2d_10[0][0]       
__________________________________________________________________________________________________
batch_normalization_30 (BatchNo (None, 16, 16, 30)   120         conv2d_7[0][0]                   
__________________________________________________________________________________________________
batch_normalization_45 (BatchNo (None, 16, 16, 30)   120         conv2d_21[0][0]                  
__________________________________________________________________________________________________
add_8 (Add)                     (None, 16, 16, 30)   0           activation_7[0][0]               
                                                                 batch_normalization_30[0][0]     
__________________________________________________________________________________________________
add_14 (Add)                    (None, 16, 16, 30)   0           activation_13[0][0]              
                                                                 batch_normalization_45[0][0]     
__________________________________________________________________________________________________
activation_8 (Activation)       (None, 16, 16, 30)   0           add_8[0][0]                      
__________________________________________________________________________________________________
activation_14 (Activation)      (None, 16, 16, 30)   0           add_14[0][0]                     
__________________________________________________________________________________________________
conv2d_8 (Conv2D)               (None, 16, 16, 30)   8130        activation_8[0][0]               
__________________________________________________________________________________________________
conv2d_22 (Conv2D)              (None, 16, 16, 30)   8130        activation_14[0][0]              
__________________________________________________________________________________________________
batch_normalization_31 (BatchNo (None, 16, 16, 30)   120         conv2d_8[0][0]                   
__________________________________________________________________________________________________
batch_normalization_46 (BatchNo (None, 16, 16, 30)   120         conv2d_22[0][0]                  
__________________________________________________________________________________________________
spatial_dropout2d_4 (SpatialDro (None, 16, 16, 30)   0           batch_normalization_31[0][0]     
__________________________________________________________________________________________________
spatial_dropout2d_11 (SpatialDr (None, 16, 16, 30)   0           batch_normalization_46[0][0]     
__________________________________________________________________________________________________
conv2d_9 (Conv2D)               (None, 16, 16, 30)   8130        spatial_dropout2d_4[0][0]        
__________________________________________________________________________________________________
conv2d_23 (Conv2D)              (None, 16, 16, 30)   8130        spatial_dropout2d_11[0][0]       
__________________________________________________________________________________________________
batch_normalization_32 (BatchNo (None, 16, 16, 30)   120         conv2d_9[0][0]                   
__________________________________________________________________________________________________
batch_normalization_47 (BatchNo (None, 16, 16, 30)   120         conv2d_23[0][0]                  
__________________________________________________________________________________________________
add_9 (Add)                     (None, 16, 16, 30)   0           activation_8[0][0]               
                                                                 batch_normalization_32[0][0]     
__________________________________________________________________________________________________
add_15 (Add)                    (None, 16, 16, 30)   0           activation_14[0][0]              
                                                                 batch_normalization_47[0][0]     
__________________________________________________________________________________________________
activation_9 (Activation)       (None, 16, 16, 30)   0           add_9[0][0]                      
__________________________________________________________________________________________________
activation_15 (Activation)      (None, 16, 16, 30)   0           add_15[0][0]                     
__________________________________________________________________________________________________
conv2d_10 (Conv2D)              (None, 16, 16, 30)   8130        activation_9[0][0]               
__________________________________________________________________________________________________
conv2d_24 (Conv2D)              (None, 16, 16, 30)   8130        activation_15[0][0]              
__________________________________________________________________________________________________
batch_normalization_33 (BatchNo (None, 16, 16, 30)   120         conv2d_10[0][0]                  
__________________________________________________________________________________________________
batch_normalization_48 (BatchNo (None, 16, 16, 30)   120         conv2d_24[0][0]                  
__________________________________________________________________________________________________
spatial_dropout2d_5 (SpatialDro (None, 16, 16, 30)   0           batch_normalization_33[0][0]     
__________________________________________________________________________________________________
spatial_dropout2d_12 (SpatialDr (None, 16, 16, 30)   0           batch_normalization_48[0][0]     
__________________________________________________________________________________________________
conv2d_11 (Conv2D)              (None, 16, 16, 30)   8130        spatial_dropout2d_5[0][0]        
__________________________________________________________________________________________________
conv2d_25 (Conv2D)              (None, 16, 16, 30)   8130        spatial_dropout2d_12[0][0]       
__________________________________________________________________________________________________
batch_normalization_34 (BatchNo (None, 16, 16, 30)   120         conv2d_11[0][0]                  
__________________________________________________________________________________________________
batch_normalization_49 (BatchNo (None, 16, 16, 30)   120         conv2d_25[0][0]                  
__________________________________________________________________________________________________
add_10 (Add)                    (None, 16, 16, 30)   0           activation_9[0][0]               
                                                                 batch_normalization_34[0][0]     
__________________________________________________________________________________________________
add_16 (Add)                    (None, 16, 16, 30)   0           activation_15[0][0]              
                                                                 batch_normalization_49[0][0]     
__________________________________________________________________________________________________
activation_10 (Activation)      (None, 16, 16, 30)   0           add_10[0][0]                     
__________________________________________________________________________________________________
activation_16 (Activation)      (None, 16, 16, 30)   0           add_16[0][0]                     
__________________________________________________________________________________________________
conv2d_12 (Conv2D)              (None, 16, 16, 30)   8130        activation_10[0][0]              
__________________________________________________________________________________________________
conv2d_26 (Conv2D)              (None, 16, 16, 30)   8130        activation_16[0][0]              
__________________________________________________________________________________________________
batch_normalization_35 (BatchNo (None, 16, 16, 30)   120         conv2d_12[0][0]                  
__________________________________________________________________________________________________
batch_normalization_50 (BatchNo (None, 16, 16, 30)   120         conv2d_26[0][0]                  
__________________________________________________________________________________________________
spatial_dropout2d_6 (SpatialDro (None, 16, 16, 30)   0           batch_normalization_35[0][0]     
__________________________________________________________________________________________________
spatial_dropout2d_13 (SpatialDr (None, 16, 16, 30)   0           batch_normalization_50[0][0]     
__________________________________________________________________________________________________
conv2d_13 (Conv2D)              (None, 16, 16, 30)   8130        spatial_dropout2d_6[0][0]        
__________________________________________________________________________________________________
conv2d_27 (Conv2D)              (None, 16, 16, 30)   8130        spatial_dropout2d_13[0][0]       
__________________________________________________________________________________________________
batch_normalization_36 (BatchNo (None, 16, 16, 30)   120         conv2d_13[0][0]                  
__________________________________________________________________________________________________
batch_normalization_51 (BatchNo (None, 16, 16, 30)   120         conv2d_27[0][0]                  
__________________________________________________________________________________________________
add_11 (Add)                    (None, 16, 16, 30)   0           activation_10[0][0]              
                                                                 batch_normalization_36[0][0]     
__________________________________________________________________________________________________
add_17 (Add)                    (None, 16, 16, 30)   0           activation_16[0][0]              
                                                                 batch_normalization_51[0][0]     
__________________________________________________________________________________________________
activation_11 (Activation)      (None, 16, 16, 30)   0           add_11[0][0]                     
__________________________________________________________________________________________________
activation_17 (Activation)      (None, 16, 16, 30)   0           add_17[0][0]                     
__________________________________________________________________________________________________
concatenate (Concatenate)       (None, 16, 16, 60)   0           activation_11[0][0]              
                                                                 activation_17[0][0]              
__________________________________________________________________________________________________
conv2d_28 (Conv2D)              (None, 16, 16, 60)   32460       concatenate[0][0]                
__________________________________________________________________________________________________
batch_normalization_52 (BatchNo (None, 16, 16, 60)   240         conv2d_28[0][0]                  
__________________________________________________________________________________________________
spatial_dropout2d_14 (SpatialDr (None, 16, 16, 60)   0           batch_normalization_52[0][0]     
__________________________________________________________________________________________________
conv2d_29 (Conv2D)              (None, 16, 16, 60)   32460       spatial_dropout2d_14[0][0]       
__________________________________________________________________________________________________
input_vox (InputLayer)          [(None, 199, 164, 56 0                                            
__________________________________________________________________________________________________
batch_normalization_53 (BatchNo (None, 16, 16, 60)   240         conv2d_29[0][0]                  
__________________________________________________________________________________________________
conv3d (Conv3D)                 (None, 100, 82, 283, 21900       input_vox[0][0]                  
__________________________________________________________________________________________________
add_18 (Add)                    (None, 16, 16, 60)   0           concatenate[0][0]                
                                                                 batch_normalization_53[0][0]     
__________________________________________________________________________________________________
batch_normalization (BatchNorma (None, 100, 82, 283, 120         conv3d[0][0]                     
__________________________________________________________________________________________________
activation_18 (Activation)      (None, 16, 16, 60)   0           add_18[0][0]                     
__________________________________________________________________________________________________
spatial_dropout3d (SpatialDropo (None, 100, 82, 283, 0           batch_normalization[0][0]        
__________________________________________________________________________________________________
conv2d_30 (Conv2D)              (None, 16, 16, 60)   32460       activation_18[0][0]              
__________________________________________________________________________________________________
conv3d_1 (Conv3D)               (None, 50, 41, 95, 3 112530      spatial_dropout3d[0][0]          
__________________________________________________________________________________________________
batch_normalization_54 (BatchNo (None, 16, 16, 60)   240         conv2d_30[0][0]                  
__________________________________________________________________________________________________
max_pooling3d (MaxPooling3D)    (None, 25, 21, 48, 3 0           conv3d_1[0][0]                   
__________________________________________________________________________________________________
spatial_dropout2d_15 (SpatialDr (None, 16, 16, 60)   0           batch_normalization_54[0][0]     
__________________________________________________________________________________________________
batch_normalization_1 (BatchNor (None, 25, 21, 48, 3 120         max_pooling3d[0][0]              
__________________________________________________________________________________________________
conv2d_31 (Conv2D)              (None, 16, 16, 60)   32460       spatial_dropout2d_15[0][0]       
__________________________________________________________________________________________________
conv3d_2 (Conv3D)               (None, 13, 11, 24, 3 112530      batch_normalization_1[0][0]      
__________________________________________________________________________________________________
batch_normalization_55 (BatchNo (None, 16, 16, 60)   240         conv2d_31[0][0]                  
__________________________________________________________________________________________________
batch_normalization_2 (BatchNor (None, 13, 11, 24, 3 120         conv3d_2[0][0]                   
__________________________________________________________________________________________________
add_19 (Add)                    (None, 16, 16, 60)   0           activation_18[0][0]              
                                                                 batch_normalization_55[0][0]     
__________________________________________________________________________________________________
conv3d_3 (Conv3D)               (None, 13, 11, 24, 3 24330       batch_normalization_2[0][0]      
__________________________________________________________________________________________________
activation_19 (Activation)      (None, 16, 16, 60)   0           add_19[0][0]                     
__________________________________________________________________________________________________
batch_normalization_3 (BatchNor (None, 13, 11, 24, 3 120         conv3d_3[0][0]                   
__________________________________________________________________________________________________
conv2d_32 (Conv2D)              (None, 16, 16, 60)   32460       activation_19[0][0]              
__________________________________________________________________________________________________
spatial_dropout3d_1 (SpatialDro (None, 13, 11, 24, 3 0           batch_normalization_3[0][0]      
__________________________________________________________________________________________________
batch_normalization_56 (BatchNo (None, 16, 16, 60)   240         conv2d_32[0][0]                  
__________________________________________________________________________________________________
conv3d_4 (Conv3D)               (None, 13, 11, 24, 3 24330       spatial_dropout3d_1[0][0]        
__________________________________________________________________________________________________
spatial_dropout2d_16 (SpatialDr (None, 16, 16, 60)   0           batch_normalization_56[0][0]     
__________________________________________________________________________________________________
batch_normalization_4 (BatchNor (None, 13, 11, 24, 3 120         conv3d_4[0][0]                   
__________________________________________________________________________________________________
conv2d_33 (Conv2D)              (None, 16, 16, 60)   32460       spatial_dropout2d_16[0][0]       
__________________________________________________________________________________________________
add (Add)                       (None, 13, 11, 24, 3 0           batch_normalization_4[0][0]      
                                                                 batch_normalization_2[0][0]      
__________________________________________________________________________________________________
batch_normalization_57 (BatchNo (None, 16, 16, 60)   240         conv2d_33[0][0]                  
__________________________________________________________________________________________________
activation (Activation)         (None, 13, 11, 24, 3 0           add[0][0]                        
__________________________________________________________________________________________________
add_20 (Add)                    (None, 16, 16, 60)   0           activation_19[0][0]              
                                                                 batch_normalization_57[0][0]     
__________________________________________________________________________________________________
conv3d_5 (Conv3D)               (None, 13, 11, 24, 3 24330       activation[0][0]                 
__________________________________________________________________________________________________
activation_20 (Activation)      (None, 16, 16, 60)   0           add_20[0][0]                     
__________________________________________________________________________________________________
batch_normalization_5 (BatchNor (None, 13, 11, 24, 3 120         conv3d_5[0][0]                   
__________________________________________________________________________________________________
conv2d_34 (Conv2D)              (None, 16, 16, 60)   32460       activation_20[0][0]              
__________________________________________________________________________________________________
spatial_dropout3d_2 (SpatialDro (None, 13, 11, 24, 3 0           batch_normalization_5[0][0]      
__________________________________________________________________________________________________
batch_normalization_58 (BatchNo (None, 16, 16, 60)   240         conv2d_34[0][0]                  
__________________________________________________________________________________________________
conv3d_6 (Conv3D)               (None, 13, 11, 24, 3 24330       spatial_dropout3d_2[0][0]        
__________________________________________________________________________________________________
spatial_dropout2d_17 (SpatialDr (None, 16, 16, 60)   0           batch_normalization_58[0][0]     
__________________________________________________________________________________________________
batch_normalization_6 (BatchNor (None, 13, 11, 24, 3 120         conv3d_6[0][0]                   
__________________________________________________________________________________________________
conv2d_35 (Conv2D)              (None, 16, 16, 60)   32460       spatial_dropout2d_17[0][0]       
__________________________________________________________________________________________________
add_1 (Add)                     (None, 13, 11, 24, 3 0           batch_normalization_6[0][0]      
                                                                 activation[0][0]                 
__________________________________________________________________________________________________
batch_normalization_59 (BatchNo (None, 16, 16, 60)   240         conv2d_35[0][0]                  
__________________________________________________________________________________________________
activation_1 (Activation)       (None, 13, 11, 24, 3 0           add_1[0][0]                      
__________________________________________________________________________________________________
add_21 (Add)                    (None, 16, 16, 60)   0           activation_20[0][0]              
                                                                 batch_normalization_59[0][0]     
__________________________________________________________________________________________________
conv3d_7 (Conv3D)               (None, 13, 11, 24, 3 24330       activation_1[0][0]               
__________________________________________________________________________________________________
activation_21 (Activation)      (None, 16, 16, 60)   0           add_21[0][0]                     
__________________________________________________________________________________________________
batch_normalization_7 (BatchNor (None, 13, 11, 24, 3 120         conv3d_7[0][0]                   
__________________________________________________________________________________________________
conv2d_36 (Conv2D)              (None, 16, 16, 60)   32460       activation_21[0][0]              
__________________________________________________________________________________________________
spatial_dropout3d_3 (SpatialDro (None, 13, 11, 24, 3 0           batch_normalization_7[0][0]      
__________________________________________________________________________________________________
batch_normalization_60 (BatchNo (None, 16, 16, 60)   240         conv2d_36[0][0]                  
__________________________________________________________________________________________________
conv3d_8 (Conv3D)               (None, 13, 11, 24, 3 24330       spatial_dropout3d_3[0][0]        
__________________________________________________________________________________________________
spatial_dropout2d_18 (SpatialDr (None, 16, 16, 60)   0           batch_normalization_60[0][0]     
__________________________________________________________________________________________________
batch_normalization_8 (BatchNor (None, 13, 11, 24, 3 120         conv3d_8[0][0]                   
__________________________________________________________________________________________________
conv2d_37 (Conv2D)              (None, 16, 16, 60)   32460       spatial_dropout2d_18[0][0]       
__________________________________________________________________________________________________
add_2 (Add)                     (None, 13, 11, 24, 3 0           batch_normalization_8[0][0]      
                                                                 activation_1[0][0]               
__________________________________________________________________________________________________
batch_normalization_61 (BatchNo (None, 16, 16, 60)   240         conv2d_37[0][0]                  
__________________________________________________________________________________________________
activation_2 (Activation)       (None, 13, 11, 24, 3 0           add_2[0][0]                      
__________________________________________________________________________________________________
add_22 (Add)                    (None, 16, 16, 60)   0           activation_21[0][0]              
                                                                 batch_normalization_61[0][0]     
__________________________________________________________________________________________________
conv3d_9 (Conv3D)               (None, 7, 6, 12, 40) 32440       activation_2[0][0]               
__________________________________________________________________________________________________
activation_22 (Activation)      (None, 16, 16, 60)   0           add_22[0][0]                     
__________________________________________________________________________________________________
batch_normalization_9 (BatchNor (None, 7, 6, 12, 40) 160         conv3d_9[0][0]                   
__________________________________________________________________________________________________
conv2d_38 (Conv2D)              (None, 8, 8, 60)     14460       activation_22[0][0]              
__________________________________________________________________________________________________
spatial_dropout3d_4 (SpatialDro (None, 7, 6, 12, 40) 0           batch_normalization_9[0][0]      
__________________________________________________________________________________________________
batch_normalization_62 (BatchNo (None, 8, 8, 60)     240         conv2d_38[0][0]                  
__________________________________________________________________________________________________
conv3d_10 (Conv3D)              (None, 7, 6, 12, 40) 43240       spatial_dropout3d_4[0][0]        
__________________________________________________________________________________________________
conv3d_11 (Conv3D)              (None, 7, 6, 12, 40) 32440       activation_2[0][0]               
__________________________________________________________________________________________________
spatial_dropout2d_19 (SpatialDr (None, 8, 8, 60)     0           batch_normalization_62[0][0]     
__________________________________________________________________________________________________
batch_normalization_10 (BatchNo (None, 7, 6, 12, 40) 160         conv3d_10[0][0]                  
__________________________________________________________________________________________________
batch_normalization_11 (BatchNo (None, 7, 6, 12, 40) 160         conv3d_11[0][0]                  
__________________________________________________________________________________________________
conv2d_39 (Conv2D)              (None, 8, 8, 60)     14460       spatial_dropout2d_19[0][0]       
__________________________________________________________________________________________________
conv2d_40 (Conv2D)              (None, 8, 8, 60)     3660        activation_22[0][0]              
__________________________________________________________________________________________________
add_3 (Add)                     (None, 7, 6, 12, 40) 0           batch_normalization_10[0][0]     
                                                                 batch_normalization_11[0][0]     
__________________________________________________________________________________________________
batch_normalization_63 (BatchNo (None, 8, 8, 60)     240         conv2d_39[0][0]                  
__________________________________________________________________________________________________
batch_normalization_64 (BatchNo (None, 8, 8, 60)     240         conv2d_40[0][0]                  
__________________________________________________________________________________________________
activation_3 (Activation)       (None, 7, 6, 12, 40) 0           add_3[0][0]                      
__________________________________________________________________________________________________
add_23 (Add)                    (None, 8, 8, 60)     0           batch_normalization_63[0][0]     
                                                                 batch_normalization_64[0][0]     
__________________________________________________________________________________________________
conv3d_12 (Conv3D)              (None, 4, 3, 6, 50)  16050       activation_3[0][0]               
__________________________________________________________________________________________________
activation_23 (Activation)      (None, 8, 8, 60)     0           add_23[0][0]                     
__________________________________________________________________________________________________
batch_normalization_12 (BatchNo (None, 4, 3, 6, 50)  200         conv3d_12[0][0]                  
__________________________________________________________________________________________________
conv2d_41 (Conv2D)              (None, 4, 4, 60)     14460       activation_23[0][0]              
__________________________________________________________________________________________________
spatial_dropout3d_5 (SpatialDro (None, 4, 3, 6, 50)  0           batch_normalization_12[0][0]     
__________________________________________________________________________________________________
batch_normalization_65 (BatchNo (None, 4, 4, 60)     240         conv2d_41[0][0]                  
__________________________________________________________________________________________________
conv3d_13 (Conv3D)              (None, 4, 3, 6, 50)  20050       spatial_dropout3d_5[0][0]        
__________________________________________________________________________________________________
conv3d_14 (Conv3D)              (None, 4, 3, 6, 50)  2050        activation_3[0][0]               
__________________________________________________________________________________________________
spatial_dropout2d_20 (SpatialDr (None, 4, 4, 60)     0           batch_normalization_65[0][0]     
__________________________________________________________________________________________________
batch_normalization_13 (BatchNo (None, 4, 3, 6, 50)  200         conv3d_13[0][0]                  
__________________________________________________________________________________________________
batch_normalization_14 (BatchNo (None, 4, 3, 6, 50)  200         conv3d_14[0][0]                  
__________________________________________________________________________________________________
conv2d_42 (Conv2D)              (None, 4, 4, 60)     14460       spatial_dropout2d_20[0][0]       
__________________________________________________________________________________________________
conv2d_43 (Conv2D)              (None, 4, 4, 60)     3660        activation_23[0][0]              
__________________________________________________________________________________________________
add_4 (Add)                     (None, 4, 3, 6, 50)  0           batch_normalization_13[0][0]     
                                                                 batch_normalization_14[0][0]     
__________________________________________________________________________________________________
batch_normalization_66 (BatchNo (None, 4, 4, 60)     240         conv2d_42[0][0]                  
__________________________________________________________________________________________________
batch_normalization_67 (BatchNo (None, 4, 4, 60)     240         conv2d_43[0][0]                  
__________________________________________________________________________________________________
activation_4 (Activation)       (None, 4, 3, 6, 50)  0           add_4[0][0]                      
__________________________________________________________________________________________________
add_24 (Add)                    (None, 4, 4, 60)     0           batch_normalization_66[0][0]     
                                                                 batch_normalization_67[0][0]     
__________________________________________________________________________________________________
conv3d_15 (Conv3D)              (None, 2, 2, 3, 50)  20050       activation_4[0][0]               
__________________________________________________________________________________________________
activation_24 (Activation)      (None, 4, 4, 60)     0           add_24[0][0]                     
__________________________________________________________________________________________________
batch_normalization_15 (BatchNo (None, 2, 2, 3, 50)  200         conv3d_15[0][0]                  
__________________________________________________________________________________________________
conv2d_44 (Conv2D)              (None, 2, 2, 60)     14460       activation_24[0][0]              
__________________________________________________________________________________________________
spatial_dropout3d_6 (SpatialDro (None, 2, 2, 3, 50)  0           batch_normalization_15[0][0]     
__________________________________________________________________________________________________
batch_normalization_68 (BatchNo (None, 2, 2, 60)     240         conv2d_44[0][0]                  
__________________________________________________________________________________________________
conv3d_16 (Conv3D)              (None, 2, 2, 3, 50)  20050       spatial_dropout3d_6[0][0]        
__________________________________________________________________________________________________
conv3d_17 (Conv3D)              (None, 2, 2, 3, 50)  2550        activation_4[0][0]               
__________________________________________________________________________________________________
spatial_dropout2d_21 (SpatialDr (None, 2, 2, 60)     0           batch_normalization_68[0][0]     
__________________________________________________________________________________________________
batch_normalization_16 (BatchNo (None, 2, 2, 3, 50)  200         conv3d_16[0][0]                  
__________________________________________________________________________________________________
batch_normalization_17 (BatchNo (None, 2, 2, 3, 50)  200         conv3d_17[0][0]                  
__________________________________________________________________________________________________
conv2d_45 (Conv2D)              (None, 2, 2, 60)     14460       spatial_dropout2d_21[0][0]       
__________________________________________________________________________________________________
conv2d_46 (Conv2D)              (None, 2, 2, 60)     3660        activation_24[0][0]              
__________________________________________________________________________________________________
add_5 (Add)                     (None, 2, 2, 3, 50)  0           batch_normalization_16[0][0]     
                                                                 batch_normalization_17[0][0]     
__________________________________________________________________________________________________
batch_normalization_69 (BatchNo (None, 2, 2, 60)     240         conv2d_45[0][0]                  
__________________________________________________________________________________________________
batch_normalization_70 (BatchNo (None, 2, 2, 60)     240         conv2d_46[0][0]                  
__________________________________________________________________________________________________
activation_5 (Activation)       (None, 2, 2, 3, 50)  0           add_5[0][0]                      
__________________________________________________________________________________________________
add_25 (Add)                    (None, 2, 2, 60)     0           batch_normalization_69[0][0]     
                                                                 batch_normalization_70[0][0]     
__________________________________________________________________________________________________
batch_normalization_18 (BatchNo (None, 2, 2, 3, 50)  200         activation_5[0][0]               
__________________________________________________________________________________________________
activation_25 (Activation)      (None, 2, 2, 60)     0           add_25[0][0]                     
__________________________________________________________________________________________________
spatial_dropout3d_7 (SpatialDro (None, 2, 2, 3, 50)  0           batch_normalization_18[0][0]     
__________________________________________________________________________________________________
conv2d_47 (Conv2D)              (None, 1, 1, 60)     14460       activation_25[0][0]              
__________________________________________________________________________________________________
conv3d_18 (Conv3D)              (None, 1, 1, 2, 50)  20050       spatial_dropout3d_7[0][0]        
__________________________________________________________________________________________________
flatten_1 (Flatten)             (None, 60)           0           conv2d_47[0][0]                  
__________________________________________________________________________________________________
flatten (Flatten)               (None, 100)          0           conv3d_18[0][0]                  
__________________________________________________________________________________________________
batch_normalization_71 (BatchNo (None, 60)           240         flatten_1[0][0]                  
__________________________________________________________________________________________________
batch_normalization_19 (BatchNo (None, 100)          400         flatten[0][0]                    
__________________________________________________________________________________________________
dense_2 (Dense)                 (None, 50)           3050        batch_normalization_71[0][0]     
__________________________________________________________________________________________________
dense (Dense)                   (None, 75)           7575        batch_normalization_19[0][0]     
__________________________________________________________________________________________________
batch_normalization_72 (BatchNo (None, 50)           200         dense_2[0][0]                    
__________________________________________________________________________________________________
batch_normalization_20 (BatchNo (None, 75)           300         dense[0][0]                      
__________________________________________________________________________________________________2019-09-07 23:59:28.070537: I tensorflow/core/platform/cpu_feature_guard.cc:142] Your CPU supports instructions that this TensorFlow binary was not compiled to use: SSE4.1 SSE4.2 AVX AVX2 FMA
2019-09-07 23:59:28.112437: I tensorflow/core/platform/profile_utils/cpu_utils.cc:94] CPU Frequency: 2599945000 Hz
…
2019-09-07 23:59:34.174761: I tensorflow/compiler/xla/service/service.cc:175]   StreamExecutor device (0): Tesla P100-PCIE-16GB, Compute Capability 6.0
2019-09-07 23:59:34.174784: I tensorflow/compiler/xla/service/service.cc:175]   StreamExecutor device (1): Tesla P100-PCIE-16GB, Compute Capability 6.0
2019-09-08 00:00:00.437286: I tensorflow/stream_executor/platform/default/dso_loader.cc:42] Successfully opened dynamic library libcublas.so.9.0
2019-09-08 00:00:02.732609: I tensorflow/stream_executor/platform/default/dso_loader.cc:42] Successfully opened dynamic library libcudnn.so.7

dense_3 (Dense)                 (None, 50)           2550        batch_normalization_72[0][0]     
__________________________________________________________________________________________________
dense_1 (Dense)                 (None, 50)           3800        batch_normalization_20[0][0]     
__________________________________________________________________________________________________
batch_normalization_73 (BatchNo (None, 50)           200         dense_3[0][0]                    
__________________________________________________________________________________________________
batch_normalization_21 (BatchNo (None, 50)           200         dense_1[0][0]                    
__________________________________________________________________________________________________
add_26 (Add)                    (None, 50)           0           batch_normalization_73[0][0]     
                                                                 batch_normalization_21[0][0]     
__________________________________________________________________________________________________
activation_26 (Activation)      (None, 50)           0           add_26[0][0]                     
__________________________________________________________________________________________________
batch_normalization_74 (BatchNo (None, 50)           200         activation_26[0][0]              
__________________________________________________________________________________________________
input_cali (InputLayer)         [(None, 6)]          0                                            
__________________________________________________________________________________________________
dense_4 (Dense)                 (None, 60)           3060        batch_normalization_74[0][0]     
__________________________________________________________________________________________________
batch_normalization_80 (BatchNo (None, 6)            24          input_cali[0][0]                 
__________________________________________________________________________________________________
batch_normalization_75 (BatchNo (None, 60)           240         dense_4[0][0]                    
__________________________________________________________________________________________________
dense_9 (Dense)                 (None, 20)           140         batch_normalization_80[0][0]     
__________________________________________________________________________________________________
dense_5 (Dense)                 (None, 50)           3050        batch_normalization_75[0][0]     
__________________________________________________________________________________________________
batch_normalization_81 (BatchNo (None, 20)           80          dense_9[0][0]                    
__________________________________________________________________________________________________
batch_normalization_76 (BatchNo (None, 50)           200         dense_5[0][0]                    
__________________________________________________________________________________________________
dense_10 (Dense)                (None, 20)           420         batch_normalization_81[0][0]     
__________________________________________________________________________________________________
dense_6 (Dense)                 (None, 30)           1530        batch_normalization_76[0][0]     
__________________________________________________________________________________________________
batch_normalization_82 (BatchNo (None, 20)           80          dense_10[0][0]                   
__________________________________________________________________________________________________
batch_normalization_77 (BatchNo (None, 30)           120         dense_6[0][0]                    
__________________________________________________________________________________________________
dense_11 (Dense)                (None, 20)           420         batch_normalization_82[0][0]     
__________________________________________________________________________________________________
dense_7 (Dense)                 (None, 15)           465         batch_normalization_77[0][0]     
__________________________________________________________________________________________________
batch_normalization_83 (BatchNo (None, 20)           80          dense_11[0][0]                   
__________________________________________________________________________________________________
batch_normalization_78 (BatchNo (None, 15)           60          dense_7[0][0]                    
__________________________________________________________________________________________________
dense_12 (Dense)                (None, 6)            126         batch_normalization_83[0][0]     
__________________________________________________________________________________________________
dense_8 (Dense)                 (None, 6)            96          batch_normalization_78[0][0]     
__________________________________________________________________________________________________
batch_normalization_84 (BatchNo (None, 6)            24          dense_12[0][0]                   
__________________________________________________________________________________________________
batch_normalization_79 (BatchNo (None, 6)            24          dense_8[0][0]                    
__________________________________________________________________________________________________
add_27 (Add)                    (None, 6)            0           batch_normalization_84[0][0]     
                                                                 batch_normalization_79[0][0]     
__________________________________________________________________________________________________
activation_27 (Activation)      (None, 6)            0           add_27[0][0]                     
__________________________________________________________________________________________________
dense_13 (Dense)                (None, 6)            42          activation_27[0][0]              
__________________________________________________________________________________________________
batch_normalization_85 (BatchNo (None, 6)            24          dense_13[0][0]                   
__________________________________________________________________________________________________
dense_14 (Dense)                (None, 6)            42          batch_normalization_85[0][0]     
__________________________________________________________________________________________________
batch_normalization_86 (BatchNo (None, 6)            24          dense_14[0][0]                   
__________________________________________________________________________________________________
add_28 (Add)                    (None, 6)            0           batch_normalization_86[0][0]     
                                                                 batch_normalization_84[0][0]     
__________________________________________________________________________________________________
activation_28 (Activation)      (None, 6)            0           add_28[0][0]                     
__________________________________________________________________________________________________
dense_15 (Dense)                (None, 6)            42          activation_28[0][0]              
__________________________________________________________________________________________________
batch_normalization_87 (BatchNo (None, 6)            24          dense_15[0][0]                   
__________________________________________________________________________________________________
dense_16 (Dense)                (None, 6)            42          batch_normalization_87[0][0]     
__________________________________________________________________________________________________
batch_normalization_88 (BatchNo (None, 6)            24          dense_16[0][0]                   
__________________________________________________________________________________________________
add_29 (Add)                    (None, 6)            0           batch_normalization_88[0][0]     
                                                                 activation_28[0][0]              
__________________________________________________________________________________________________
activation_29 (Activation)      (None, 6)            0           add_29[0][0]                     
__________________________________________________________________________________________________
dense_17 (Dense)                (None, 6)            42          activation_29[0][0]              
__________________________________________________________________________________________________
batch_normalization_89 (BatchNo (None, 6)            24          dense_17[0][0]                   
__________________________________________________________________________________________________
dense_18 (Dense)                (None, 6)            42          batch_normalization_89[0][0]     
__________________________________________________________________________________________________
batch_normalization_90 (BatchNo (None, 6)            24          dense_18[0][0]                   
__________________________________________________________________________________________________
add_30 (Add)                    (None, 6)            0           batch_normalization_90[0][0]     
                                                                 activation_29[0][0]              
__________________________________________________________________________________________________
activation_30 (Activation)      (None, 6)            0           add_30[0][0]                     
__________________________________________________________________________________________________
dense_19 (Dense)                (None, 6)            42          activation_30[0][0]              
__________________________________________________________________________________________________
main_output (Dense)             (None, 6)            42          dense_19[0][0]                   
==================================================================================================
Total params: 1,320,772
Trainable params: 1,313,920
Non-trainable params: 6,852
__________________________________________________________________________________________________


completely loaded...


Train on 4074 samples, validate on 1018 samples
Epoch 1/100
…
