Model: "model"
__________________________________________________________________________________________________
Layer (type)                    Output Shape         Param #     Connected to                     
==================================================================================================
input_fluoro_1 (InputLayer)     [(None, 128, 128, 1) 0                                            
__________________________________________________________________________________________________
input_fluoro_2 (InputLayer)     [(None, 128, 128, 1) 0                                            
__________________________________________________________________________________________________
conv2d (Conv2D)                 (None, 64, 64, 30)   780         input_fluoro_1[0][0]             
__________________________________________________________________________________________________
conv2d_14 (Conv2D)              (None, 64, 64, 30)   780         input_fluoro_2[0][0]             
__________________________________________________________________________________________________
spatial_dropout2d (SpatialDropo (None, 64, 64, 30)   0           conv2d[0][0]                     
__________________________________________________________________________________________________
spatial_dropout2d_7 (SpatialDro (None, 64, 64, 30)   0           conv2d_14[0][0]                  
__________________________________________________________________________________________________
conv2d_1 (Conv2D)               (None, 32, 32, 30)   22530       spatial_dropout2d[0][0]          
__________________________________________________________________________________________________
conv2d_15 (Conv2D)              (None, 32, 32, 30)   22530       spatial_dropout2d_7[0][0]        
__________________________________________________________________________________________________
average_pooling2d (AveragePooli (None, 16, 16, 30)   0           conv2d_1[0][0]                   
__________________________________________________________________________________________________
average_pooling2d_1 (AveragePoo (None, 16, 16, 30)   0           conv2d_15[0][0]                  
__________________________________________________________________________________________________
conv2d_2 (Conv2D)               (None, 16, 16, 30)   8130        average_pooling2d[0][0]          
__________________________________________________________________________________________________
conv2d_16 (Conv2D)              (None, 16, 16, 30)   8130        average_pooling2d_1[0][0]        
__________________________________________________________________________________________________
spatial_dropout2d_1 (SpatialDro (None, 16, 16, 30)   0           conv2d_2[0][0]                   
__________________________________________________________________________________________________
spatial_dropout2d_8 (SpatialDro (None, 16, 16, 30)   0           conv2d_16[0][0]                  
__________________________________________________________________________________________________
conv2d_3 (Conv2D)               (None, 16, 16, 30)   8130        spatial_dropout2d_1[0][0]        
__________________________________________________________________________________________________
conv2d_17 (Conv2D)              (None, 16, 16, 30)   8130        spatial_dropout2d_8[0][0]        
__________________________________________________________________________________________________
add_6 (Add)                     (None, 16, 16, 30)   0           conv2d_3[0][0]                   
                                                                 average_pooling2d[0][0]          
__________________________________________________________________________________________________
add_12 (Add)                    (None, 16, 16, 30)   0           conv2d_17[0][0]                  
                                                                 average_pooling2d_1[0][0]        
__________________________________________________________________________________________________
activation_6 (Activation)       (None, 16, 16, 30)   0           add_6[0][0]                      
__________________________________________________________________________________________________
activation_12 (Activation)      (None, 16, 16, 30)   0           add_12[0][0]                     
__________________________________________________________________________________________________
conv2d_4 (Conv2D)               (None, 16, 16, 30)   8130        activation_6[0][0]               
__________________________________________________________________________________________________
conv2d_18 (Conv2D)              (None, 16, 16, 30)   8130        activation_12[0][0]              
__________________________________________________________________________________________________
spatial_dropout2d_2 (SpatialDro (None, 16, 16, 30)   0           conv2d_4[0][0]                   
__________________________________________________________________________________________________
spatial_dropout2d_9 (SpatialDro (None, 16, 16, 30)   0           conv2d_18[0][0]                  
__________________________________________________________________________________________________
conv2d_5 (Conv2D)               (None, 16, 16, 30)   8130        spatial_dropout2d_2[0][0]        
__________________________________________________________________________________________________
conv2d_19 (Conv2D)              (None, 16, 16, 30)   8130        spatial_dropout2d_9[0][0]        
__________________________________________________________________________________________________
add_7 (Add)                     (None, 16, 16, 30)   0           activation_6[0][0]               
                                                                 conv2d_5[0][0]                   
__________________________________________________________________________________________________
add_13 (Add)                    (None, 16, 16, 30)   0           activation_12[0][0]              
                                                                 conv2d_19[0][0]                  
__________________________________________________________________________________________________
activation_7 (Activation)       (None, 16, 16, 30)   0           add_7[0][0]                      
__________________________________________________________________________________________________
activation_13 (Activation)      (None, 16, 16, 30)   0           add_13[0][0]                     
__________________________________________________________________________________________________
conv2d_6 (Conv2D)               (None, 16, 16, 30)   8130        activation_7[0][0]               
__________________________________________________________________________________________________
conv2d_20 (Conv2D)              (None, 16, 16, 30)   8130        activation_13[0][0]              
__________________________________________________________________________________________________
spatial_dropout2d_3 (SpatialDro (None, 16, 16, 30)   0           conv2d_6[0][0]                   
__________________________________________________________________________________________________
spatial_dropout2d_10 (SpatialDr (None, 16, 16, 30)   0           conv2d_20[0][0]                  
__________________________________________________________________________________________________
conv2d_7 (Conv2D)               (None, 16, 16, 30)   8130        spatial_dropout2d_3[0][0]        
__________________________________________________________________________________________________
conv2d_21 (Conv2D)              (None, 16, 16, 30)   8130        spatial_dropout2d_10[0][0]       
__________________________________________________________________________________________________
add_8 (Add)                     (None, 16, 16, 30)   0           activation_7[0][0]               
                                                                 conv2d_7[0][0]                   
__________________________________________________________________________________________________
add_14 (Add)                    (None, 16, 16, 30)   0           activation_13[0][0]              
                                                                 conv2d_21[0][0]                  
__________________________________________________________________________________________________
activation_8 (Activation)       (None, 16, 16, 30)   0           add_8[0][0]                      
__________________________________________________________________________________________________
activation_14 (Activation)      (None, 16, 16, 30)   0           add_14[0][0]                     
__________________________________________________________________________________________________
conv2d_8 (Conv2D)               (None, 16, 16, 30)   8130        activation_8[0][0]               
__________________________________________________________________________________________________
conv2d_22 (Conv2D)              (None, 16, 16, 30)   8130        activation_14[0][0]              
__________________________________________________________________________________________________
spatial_dropout2d_4 (SpatialDro (None, 16, 16, 30)   0           conv2d_8[0][0]                   
__________________________________________________________________________________________________
spatial_dropout2d_11 (SpatialDr (None, 16, 16, 30)   0           conv2d_22[0][0]                  
__________________________________________________________________________________________________
conv2d_9 (Conv2D)               (None, 16, 16, 30)   8130        spatial_dropout2d_4[0][0]        
__________________________________________________________________________________________________
conv2d_23 (Conv2D)              (None, 16, 16, 30)   8130        spatial_dropout2d_11[0][0]       
__________________________________________________________________________________________________
add_9 (Add)                     (None, 16, 16, 30)   0           activation_8[0][0]               
                                                                 conv2d_9[0][0]                   
__________________________________________________________________________________________________
add_15 (Add)                    (None, 16, 16, 30)   0           activation_14[0][0]              
                                                                 conv2d_23[0][0]                  
__________________________________________________________________________________________________
activation_9 (Activation)       (None, 16, 16, 30)   0           add_9[0][0]                      
__________________________________________________________________________________________________
activation_15 (Activation)      (None, 16, 16, 30)   0           add_15[0][0]                     
__________________________________________________________________________________________________
conv2d_10 (Conv2D)              (None, 16, 16, 30)   8130        activation_9[0][0]               
__________________________________________________________________________________________________
conv2d_24 (Conv2D)              (None, 16, 16, 30)   8130        activation_15[0][0]              
__________________________________________________________________________________________________
spatial_dropout2d_5 (SpatialDro (None, 16, 16, 30)   0           conv2d_10[0][0]                  
__________________________________________________________________________________________________
spatial_dropout2d_12 (SpatialDr (None, 16, 16, 30)   0           conv2d_24[0][0]                  
__________________________________________________________________________________________________
conv2d_11 (Conv2D)              (None, 16, 16, 30)   8130        spatial_dropout2d_5[0][0]        
__________________________________________________________________________________________________
conv2d_25 (Conv2D)              (None, 16, 16, 30)   8130        spatial_dropout2d_12[0][0]       
__________________________________________________________________________________________________
add_10 (Add)                    (None, 16, 16, 30)   0           activation_9[0][0]               
                                                                 conv2d_11[0][0]                  
__________________________________________________________________________________________________
add_16 (Add)                    (None, 16, 16, 30)   0           activation_15[0][0]              
                                                                 conv2d_25[0][0]                  
__________________________________________________________________________________________________
activation_10 (Activation)      (None, 16, 16, 30)   0           add_10[0][0]                     
__________________________________________________________________________________________________
activation_16 (Activation)      (None, 16, 16, 30)   0           add_16[0][0]                     
__________________________________________________________________________________________________
conv2d_12 (Conv2D)              (None, 16, 16, 30)   8130        activation_10[0][0]              
__________________________________________________________________________________________________
conv2d_26 (Conv2D)              (None, 16, 16, 30)   8130        activation_16[0][0]              
__________________________________________________________________________________________________
spatial_dropout2d_6 (SpatialDro (None, 16, 16, 30)   0           conv2d_12[0][0]                  
__________________________________________________________________________________________________
spatial_dropout2d_13 (SpatialDr (None, 16, 16, 30)   0           conv2d_26[0][0]                  
__________________________________________________________________________________________________
conv2d_13 (Conv2D)              (None, 16, 16, 30)   8130        spatial_dropout2d_6[0][0]        
__________________________________________________________________________________________________
conv2d_27 (Conv2D)              (None, 16, 16, 30)   8130        spatial_dropout2d_13[0][0]       
__________________________________________________________________________________________________
add_11 (Add)                    (None, 16, 16, 30)   0           activation_10[0][0]              
                                                                 conv2d_13[0][0]                  
__________________________________________________________________________________________________
add_17 (Add)                    (None, 16, 16, 30)   0           activation_16[0][0]              
                                                                 conv2d_27[0][0]                  
__________________________________________________________________________________________________
activation_11 (Activation)      (None, 16, 16, 30)   0           add_11[0][0]                     
__________________________________________________________________________________________________
activation_17 (Activation)      (None, 16, 16, 30)   0           add_17[0][0]                     
__________________________________________________________________________________________________
concatenate (Concatenate)       (None, 16, 16, 60)   0           activation_11[0][0]              
                                                                 activation_17[0][0]              
__________________________________________________________________________________________________
conv2d_28 (Conv2D)              (None, 16, 16, 60)   32460       concatenate[0][0]                
__________________________________________________________________________________________________
spatial_dropout2d_14 (SpatialDr (None, 16, 16, 60)   0           conv2d_28[0][0]                  
__________________________________________________________________________________________________
conv2d_29 (Conv2D)              (None, 16, 16, 60)   32460       spatial_dropout2d_14[0][0]       
__________________________________________________________________________________________________
input_vox (InputLayer)          [(None, 197, 162, 56 0                                            
__________________________________________________________________________________________________
add_18 (Add)                    (None, 16, 16, 60)   0           concatenate[0][0]                
                                                                 conv2d_29[0][0]                  
__________________________________________________________________________________________________
conv3d (Conv3D)                 (None, 99, 81, 282,  39960       input_vox[0][0]                  
__________________________________________________________________________________________________
activation_18 (Activation)      (None, 16, 16, 60)   0           add_18[0][0]                     
__________________________________________________________________________________________________
spatial_dropout3d (SpatialDropo (None, 99, 81, 282,  0           conv3d[0][0]                     
__________________________________________________________________________________________________
conv2d_30 (Conv2D)              (None, 16, 16, 60)   32460       activation_18[0][0]              
__________________________________________________________________________________________________
conv3d_1 (Conv3D)               (None, 50, 41, 94, 3 308730      spatial_dropout3d[0][0]          
__________________________________________________________________________________________________
spatial_dropout2d_15 (SpatialDr (None, 16, 16, 60)   0           conv2d_30[0][0]                  
__________________________________________________________________________________________________
max_pooling3d (MaxPooling3D)    (None, 25, 21, 47, 3 0           conv3d_1[0][0]                   
__________________________________________________________________________________________________
conv2d_31 (Conv2D)              (None, 16, 16, 60)   32460       spatial_dropout2d_15[0][0]       
__________________________________________________________________________________________________
conv3d_2 (Conv3D)               (None, 13, 11, 24, 3 112530      max_pooling3d[0][0]              
__________________________________________________________________________________________________
add_19 (Add)                    (None, 16, 16, 60)   0           activation_18[0][0]              
                                                                 conv2d_31[0][0]                  
__________________________________________________________________________________________________
conv3d_3 (Conv3D)               (None, 13, 11, 24, 3 24330       conv3d_2[0][0]                   
__________________________________________________________________________________________________
activation_19 (Activation)      (None, 16, 16, 60)   0           add_19[0][0]                     
__________________________________________________________________________________________________
spatial_dropout3d_1 (SpatialDro (None, 13, 11, 24, 3 0           conv3d_3[0][0]                   
__________________________________________________________________________________________________
conv2d_32 (Conv2D)              (None, 16, 16, 60)   32460       activation_19[0][0]              
__________________________________________________________________________________________________
conv3d_4 (Conv3D)               (None, 13, 11, 24, 3 24330       spatial_dropout3d_1[0][0]        
__________________________________________________________________________________________________
spatial_dropout2d_16 (SpatialDr (None, 16, 16, 60)   0           conv2d_32[0][0]                  
__________________________________________________________________________________________________
add (Add)                       (None, 13, 11, 24, 3 0           conv3d_4[0][0]                   
                                                                 conv3d_2[0][0]                   
__________________________________________________________________________________________________
conv2d_33 (Conv2D)              (None, 16, 16, 60)   32460       spatial_dropout2d_16[0][0]       
__________________________________________________________________________________________________
activation (Activation)         (None, 13, 11, 24, 3 0           add[0][0]                        
__________________________________________________________________________________________________
add_20 (Add)                    (None, 16, 16, 60)   0           activation_19[0][0]              
                                                                 conv2d_33[0][0]                  
__________________________________________________________________________________________________
conv3d_5 (Conv3D)               (None, 13, 11, 24, 3 24330       activation[0][0]                 
__________________________________________________________________________________________________
activation_20 (Activation)      (None, 16, 16, 60)   0           add_20[0][0]                     
__________________________________________________________________________________________________
spatial_dropout3d_2 (SpatialDro (None, 13, 11, 24, 3 0           conv3d_5[0][0]                   
__________________________________________________________________________________________________
conv2d_34 (Conv2D)              (None, 16, 16, 60)   32460       activation_20[0][0]              
__________________________________________________________________________________________________
conv3d_6 (Conv3D)               (None, 13, 11, 24, 3 24330       spatial_dropout3d_2[0][0]        
__________________________________________________________________________________________________
spatial_dropout2d_17 (SpatialDr (None, 16, 16, 60)   0           conv2d_34[0][0]                  
__________________________________________________________________________________________________
add_1 (Add)                     (None, 13, 11, 24, 3 0           conv3d_6[0][0]                   
                                                                 activation[0][0]                 
__________________________________________________________________________________________________
conv2d_35 (Conv2D)              (None, 16, 16, 60)   32460       spatial_dropout2d_17[0][0]       
__________________________________________________________________________________________________
activation_1 (Activation)       (None, 13, 11, 24, 3 0           add_1[0][0]                      
__________________________________________________________________________________________________
add_21 (Add)                    (None, 16, 16, 60)   0           activation_20[0][0]              
                                                                 conv2d_35[0][0]                  
__________________________________________________________________________________________________
conv3d_7 (Conv3D)               (None, 13, 11, 24, 3 24330       activation_1[0][0]               
__________________________________________________________________________________________________
activation_21 (Activation)      (None, 16, 16, 60)   0           add_21[0][0]                     
__________________________________________________________________________________________________
spatial_dropout3d_3 (SpatialDro (None, 13, 11, 24, 3 0           conv3d_7[0][0]                   
__________________________________________________________________________________________________
conv2d_36 (Conv2D)              (None, 16, 16, 60)   32460       activation_21[0][0]              
__________________________________________________________________________________________________
conv3d_8 (Conv3D)               (None, 13, 11, 24, 3 24330       spatial_dropout3d_3[0][0]        
__________________________________________________________________________________________________
spatial_dropout2d_18 (SpatialDr (None, 16, 16, 60)   0           conv2d_36[0][0]                  
__________________________________________________________________________________________________
add_2 (Add)                     (None, 13, 11, 24, 3 0           conv3d_8[0][0]                   
                                                                 activation_1[0][0]               
__________________________________________________________________________________________________
conv2d_37 (Conv2D)              (None, 16, 16, 60)   32460       spatial_dropout2d_18[0][0]       
__________________________________________________________________________________________________
activation_2 (Activation)       (None, 13, 11, 24, 3 0           add_2[0][0]                      
__________________________________________________________________________________________________
add_22 (Add)                    (None, 16, 16, 60)   0           activation_21[0][0]              
                                                                 conv2d_37[0][0]                  
__________________________________________________________________________________________________
conv3d_9 (Conv3D)               (None, 7, 6, 12, 40) 32440       activation_2[0][0]               
__________________________________________________________________________________________________
activation_22 (Activation)      (None, 16, 16, 60)   0           add_22[0][0]                     
__________________________________________________________________________________________________
spatial_dropout3d_4 (SpatialDro (None, 7, 6, 12, 40) 0           conv3d_9[0][0]                   
__________________________________________________________________________________________________
conv2d_38 (Conv2D)              (None, 8, 8, 60)     14460       activation_22[0][0]              
__________________________________________________________________________________________________
conv3d_10 (Conv3D)              (None, 7, 6, 12, 40) 43240       spatial_dropout3d_4[0][0]        
__________________________________________________________________________________________________
conv3d_11 (Conv3D)              (None, 7, 6, 12, 40) 32440       activation_2[0][0]               
__________________________________________________________________________________________________
spatial_dropout2d_19 (SpatialDr (None, 8, 8, 60)     0           conv2d_38[0][0]                  
__________________________________________________________________________________________________
add_3 (Add)                     (None, 7, 6, 12, 40) 0           conv3d_10[0][0]                  
                                                                 conv3d_11[0][0]                  
__________________________________________________________________________________________________
conv2d_39 (Conv2D)              (None, 8, 8, 60)     14460       spatial_dropout2d_19[0][0]       
__________________________________________________________________________________________________
conv2d_40 (Conv2D)              (None, 8, 8, 60)     3660        activation_22[0][0]              
__________________________________________________________________________________________________
activation_3 (Activation)       (None, 7, 6, 12, 40) 0           add_3[0][0]                      
__________________________________________________________________________________________________
add_23 (Add)                    (None, 8, 8, 60)     0           conv2d_39[0][0]                  
                                                                 conv2d_40[0][0]                  
__________________________________________________________________________________________________
conv3d_12 (Conv3D)              (None, 4, 3, 6, 50)  16050       activation_3[0][0]               
__________________________________________________________________________________________________
activation_23 (Activation)      (None, 8, 8, 60)     0           add_23[0][0]                     
__________________________________________________________________________________________________
spatial_dropout3d_5 (SpatialDro (None, 4, 3, 6, 50)  0           conv3d_12[0][0]                  
__________________________________________________________________________________________________
conv2d_41 (Conv2D)              (None, 4, 4, 60)     14460       activation_23[0][0]              
__________________________________________________________________________________________________
conv3d_13 (Conv3D)              (None, 4, 3, 6, 50)  20050       spatial_dropout3d_5[0][0]        
__________________________________________________________________________________________________
conv3d_14 (Conv3D)              (None, 4, 3, 6, 50)  2050        activation_3[0][0]               
__________________________________________________________________________________________________
spatial_dropout2d_20 (SpatialDr (None, 4, 4, 60)     0           conv2d_41[0][0]                  
__________________________________________________________________________________________________
add_4 (Add)                     (None, 4, 3, 6, 50)  0           conv3d_13[0][0]                  
                                                                 conv3d_14[0][0]                  
__________________________________________________________________________________________________
conv2d_42 (Conv2D)              (None, 4, 4, 60)     14460       spatial_dropout2d_20[0][0]       
__________________________________________________________________________________________________
conv2d_43 (Conv2D)              (None, 4, 4, 60)     3660        activation_23[0][0]              
__________________________________________________________________________________________________
activation_4 (Activation)       (None, 4, 3, 6, 50)  0           add_4[0][0]                      
__________________________________________________________________________________________________
add_24 (Add)                    (None, 4, 4, 60)     0           conv2d_42[0][0]                  
                                                                 conv2d_43[0][0]                  
__________________________________________________________________________________________________
conv3d_15 (Conv3D)              (None, 2, 2, 3, 50)  20050       activation_4[0][0]               
__________________________________________________________________________________________________
activation_24 (Activation)      (None, 4, 4, 60)     0           add_24[0][0]                     
__________________________________________________________________________________________________
spatial_dropout3d_6 (SpatialDro (None, 2, 2, 3, 50)  0           conv3d_15[0][0]                  
__________________________________________________________________________________________________
conv2d_44 (Conv2D)              (None, 2, 2, 60)     14460       activation_24[0][0]              
__________________________________________________________________________________________________
conv3d_16 (Conv3D)              (None, 2, 2, 3, 50)  20050       spatial_dropout3d_6[0][0]        
__________________________________________________________________________________________________
conv3d_17 (Conv3D)              (None, 2, 2, 3, 50)  2550        activation_4[0][0]               
__________________________________________________________________________________________________
spatial_dropout2d_21 (SpatialDr (None, 2, 2, 60)     0           conv2d_44[0][0]                  
__________________________________________________________________________________________________
add_5 (Add)                     (None, 2, 2, 3, 50)  0           conv3d_16[0][0]                  
                                                                 conv3d_17[0][0]                  
__________________________________________________________________________________________________
conv2d_45 (Conv2D)              (None, 2, 2, 60)     14460       spatial_dropout2d_21[0][0]       
__________________________________________________________________________________________________
conv2d_46 (Conv2D)              (None, 2, 2, 60)     3660        activation_24[0][0]              
__________________________________________________________________________________________________
activation_5 (Activation)       (None, 2, 2, 3, 50)  0           add_5[0][0]                      
__________________________________________________________________________________________________
add_25 (Add)                    (None, 2, 2, 60)     0           conv2d_45[0][0]                  2019-09-22 00:21:12.030699: I tensorflow/core/platform/cpu_feature_guard.cc:142] Your CPU supports instructions that this TensorFlow binary was not compiled to use: SSE4.1 SSE4.2 AVX AVX2 FMA
2019-09-22 00:21:12.043851: I tensorflow/core/platform/profile_utils/cpu_utils.cc:94] CPU Frequency: 2599945000 Hz
2019-09-22 00:21:12.046125: I tensorflow/compiler/xla/service/service.cc:168] XLA service 0x55c13542f990 executing computations on platform Host. Devices:
…
2019-09-22 00:21:15.944602: I tensorflow/compiler/xla/service/service.cc:175]   StreamExecutor device (1): Tesla P100-PCIE-16GB, Compute Capability 6.0
2019-09-22 00:21:27.127311: I tensorflow/stream_executor/platform/default/dso_loader.cc:42] Successfully opened dynamic library libcublas.so.9.0
2019-09-22 00:21:28.576210: I tensorflow/stream_executor/platform/default/dso_loader.cc:42] Successfully opened dynamic library libcudnn.so.7

                                                                 conv2d_46[0][0]                  
__________________________________________________________________________________________________
spatial_dropout3d_7 (SpatialDro (None, 2, 2, 3, 50)  0           activation_5[0][0]               
__________________________________________________________________________________________________
activation_25 (Activation)      (None, 2, 2, 60)     0           add_25[0][0]                     
__________________________________________________________________________________________________
conv3d_18 (Conv3D)              (None, 1, 1, 2, 50)  20050       spatial_dropout3d_7[0][0]        
__________________________________________________________________________________________________
conv2d_47 (Conv2D)              (None, 1, 1, 60)     14460       activation_25[0][0]              
__________________________________________________________________________________________________
flatten (Flatten)               (None, 100)          0           conv3d_18[0][0]                  
__________________________________________________________________________________________________
flatten_1 (Flatten)             (None, 60)           0           conv2d_47[0][0]                  
__________________________________________________________________________________________________
dropout (Dropout)               (None, 100)          0           flatten[0][0]                    
__________________________________________________________________________________________________
dense_2 (Dense)                 (None, 50)           3050        flatten_1[0][0]                  
__________________________________________________________________________________________________
dense (Dense)                   (None, 75)           7575        dropout[0][0]                    
__________________________________________________________________________________________________
dropout_2 (Dropout)             (None, 50)           0           dense_2[0][0]                    
__________________________________________________________________________________________________
dropout_1 (Dropout)             (None, 75)           0           dense[0][0]                      
__________________________________________________________________________________________________
dense_3 (Dense)                 (None, 50)           2550        dropout_2[0][0]                  
__________________________________________________________________________________________________
dense_1 (Dense)                 (None, 50)           3800        dropout_1[0][0]                  
__________________________________________________________________________________________________
add_26 (Add)                    (None, 50)           0           dense_3[0][0]                    
                                                                 dense_1[0][0]                    
__________________________________________________________________________________________________
activation_26 (Activation)      (None, 50)           0           add_26[0][0]                     
__________________________________________________________________________________________________
dense_4 (Dense)                 (None, 60)           3060        activation_26[0][0]              
__________________________________________________________________________________________________
input_cali (InputLayer)         [(None, 6)]          0                                            
__________________________________________________________________________________________________
dropout_3 (Dropout)             (None, 60)           0           dense_4[0][0]                    
__________________________________________________________________________________________________
dense_9 (Dense)                 (None, 20)           140         input_cali[0][0]                 
__________________________________________________________________________________________________
dense_5 (Dense)                 (None, 50)           3050        dropout_3[0][0]                  
__________________________________________________________________________________________________
dropout_6 (Dropout)             (None, 20)           0           dense_9[0][0]                    
__________________________________________________________________________________________________
dropout_4 (Dropout)             (None, 50)           0           dense_5[0][0]                    
__________________________________________________________________________________________________
dense_10 (Dense)                (None, 20)           420         dropout_6[0][0]                  
__________________________________________________________________________________________________
dense_6 (Dense)                 (None, 30)           1530        dropout_4[0][0]                  
__________________________________________________________________________________________________
dropout_7 (Dropout)             (None, 20)           0           dense_10[0][0]                   
__________________________________________________________________________________________________
dropout_5 (Dropout)             (None, 30)           0           dense_6[0][0]                    
__________________________________________________________________________________________________
dense_11 (Dense)                (None, 20)           420         dropout_7[0][0]                  
__________________________________________________________________________________________________
dense_7 (Dense)                 (None, 15)           465         dropout_5[0][0]                  
__________________________________________________________________________________________________
dense_12 (Dense)                (None, 10)           210         dense_11[0][0]                   
__________________________________________________________________________________________________
dense_8 (Dense)                 (None, 10)           160         dense_7[0][0]                    
__________________________________________________________________________________________________
add_27 (Add)                    (None, 10)           0           dense_12[0][0]                   
                                                                 dense_8[0][0]                    
__________________________________________________________________________________________________
activation_27 (Activation)      (None, 10)           0           add_27[0][0]                     
__________________________________________________________________________________________________
dense_13 (Dense)                (None, 10)           110         activation_27[0][0]              
__________________________________________________________________________________________________
dropout_8 (Dropout)             (None, 10)           0           dense_13[0][0]                   
__________________________________________________________________________________________________
dense_14 (Dense)                (None, 10)           110         dropout_8[0][0]                  
__________________________________________________________________________________________________
add_28 (Add)                    (None, 10)           0           dense_14[0][0]                   
                                                                 dense_12[0][0]                   
__________________________________________________________________________________________________
activation_28 (Activation)      (None, 10)           0           add_28[0][0]                     
__________________________________________________________________________________________________
dense_15 (Dense)                (None, 10)           110         activation_28[0][0]              
__________________________________________________________________________________________________
dropout_9 (Dropout)             (None, 10)           0           dense_15[0][0]                   
__________________________________________________________________________________________________
dense_16 (Dense)                (None, 10)           110         dropout_9[0][0]                  
__________________________________________________________________________________________________
add_29 (Add)                    (None, 10)           0           dense_16[0][0]                   
                                                                 activation_28[0][0]              
__________________________________________________________________________________________________
activation_29 (Activation)      (None, 10)           0           add_29[0][0]                     
__________________________________________________________________________________________________
dense_17 (Dense)                (None, 10)           110         activation_29[0][0]              
__________________________________________________________________________________________________
dropout_10 (Dropout)            (None, 10)           0           dense_17[0][0]                   
__________________________________________________________________________________________________
dense_18 (Dense)                (None, 10)           110         dropout_10[0][0]                 
__________________________________________________________________________________________________
add_30 (Add)                    (None, 10)           0           dense_18[0][0]                   
                                                                 activation_29[0][0]              
__________________________________________________________________________________________________
activation_30 (Activation)      (None, 10)           0           add_30[0][0]                     
__________________________________________________________________________________________________
dense_19 (Dense)                (None, 10)           110         activation_30[0][0]              
__________________________________________________________________________________________________
dropout_11 (Dropout)            (None, 10)           0           dense_19[0][0]                   
__________________________________________________________________________________________________
dense_20 (Dense)                (None, 10)           110         dropout_11[0][0]                 
__________________________________________________________________________________________________
add_31 (Add)                    (None, 10)           0           dense_20[0][0]                   
                                                                 activation_30[0][0]              
__________________________________________________________________________________________________
activation_31 (Activation)      (None, 10)           0           add_31[0][0]                     
__________________________________________________________________________________________________
dense_21 (Dense)                (None, 10)           110         activation_31[0][0]              
__________________________________________________________________________________________________
dropout_12 (Dropout)            (None, 10)           0           dense_21[0][0]                   
__________________________________________________________________________________________________
dense_22 (Dense)                (None, 10)           110         dropout_12[0][0]                 
__________________________________________________________________________________________________
add_32 (Add)                    (None, 10)           0           dense_22[0][0]                   
                                                                 activation_31[0][0]              
__________________________________________________________________________________________________
activation_32 (Activation)      (None, 10)           0           add_32[0][0]                     
__________________________________________________________________________________________________
dense_23 (Dense)                (None, 10)           110         activation_32[0][0]              
__________________________________________________________________________________________________
dense_24 (Dense)                (None, 10)           110         dense_23[0][0]                   
__________________________________________________________________________________________________
add_33 (Add)                    (None, 10)           0           dense_24[0][0]                   
                                                                 activation_32[0][0]              
__________________________________________________________________________________________________
activation_33 (Activation)      (None, 10)           0           add_33[0][0]                     
__________________________________________________________________________________________________
dense_25 (Dense)                (None, 10)           110         activation_33[0][0]              
__________________________________________________________________________________________________
main_output (Dense)             (None, 6)            66          dense_25[0][0]                   
==================================================================================================
Total params: 1,522,636
Trainable params: 1,522,636
Non-trainable params: 0
__________________________________________________________________________________________________


completely loaded...


Train on 77 samples, validate on 19 samples
Epoch 1/2000
77/77 - 64s - loss: 31486.1748 - mean_absolute_error: 95.8750 - val_loss: 413.1769 - val_mean_absolute_error: 17.2725
…
