…
spatial_dropout3d (SpatialDropo (None, 100, 82, 283, 0           batch_normalization[0][0]        
__________________________________________________________________________________________________
conv3d_1 (Conv3D)               (None, 50, 41, 95, 3 112530      spatial_dropout3d[0][0]          
__________________________________________________________________________________________________
max_pooling3d (MaxPooling3D)    (None, 25, 20, 47, 3 0           conv3d_1[0][0]                   
__________________________________________________________________________________________________
input_fluoro_1 (InputLayer)     [(None, 128, 128, 1) 0                                            
__________________________________________________________________________________________________
input_fluoro_2 (InputLayer)     [(None, 128, 128, 1) 0                                            
__________________________________________________________________________________________________
batch_normalization_1 (BatchNor (None, 25, 20, 47, 3 120         max_pooling3d[0][0]              
__________________________________________________________________________________________________
lambda (Lambda)                 (None, 128, 128, 1)  0           input_fluoro_1[0][0]             
__________________________________________________________________________________________________
lambda_1 (Lambda)               (None, 128, 128, 1)  0           input_fluoro_2[0][0]             
__________________________________________________________________________________________________
conv3d_2 (Conv3D)               (None, 13, 10, 24, 4 32440       batch_normalization_1[0][0]      
__________________________________________________________________________________________________
batch_normalization_11 (BatchNo (None, 128, 128, 1)  4           lambda[0][0]                     
__________________________________________________________________________________________________
batch_normalization_20 (BatchNo (None, 128, 128, 1)  4           lambda_1[0][0]                   
__________________________________________________________________________________________________
batch_normalization_2 (BatchNor (None, 13, 10, 24, 4 160         conv3d_2[0][0]                   
__________________________________________________________________________________________________
conv2d (Conv2D)                 (None, 64, 64, 30)   780         batch_normalization_11[0][0]     
__________________________________________________________________________________________________
conv2d_6 (Conv2D)               (None, 64, 64, 30)   780         batch_normalization_20[0][0]     
__________________________________________________________________________________________________
spatial_dropout3d_1 (SpatialDro (None, 13, 10, 24, 4 0           batch_normalization_2[0][0]      
__________________________________________________________________________________________________
batch_normalization_12 (BatchNo (None, 64, 64, 30)   120         conv2d[0][0]                     
__________________________________________________________________________________________________
batch_normalization_21 (BatchNo (None, 64, 64, 30)   120         conv2d_6[0][0]                   
__________________________________________________________________________________________________
conv3d_3 (Conv3D)               (None, 7, 5, 12, 50) 54050       spatial_dropout3d_1[0][0]        
__________________________________________________________________________________________________
spatial_dropout2d (SpatialDropo (None, 64, 64, 30)   0           batch_normalization_12[0][0]     
__________________________________________________________________________________________________
spatial_dropout2d_3 (SpatialDro (None, 64, 64, 30)   0           batch_normalization_21[0][0]     
__________________________________________________________________________________________________
max_pooling3d_1 (MaxPooling3D)  (None, 4, 3, 6, 50)  0           conv3d_3[0][0]                   
__________________________________________________________________________________________________
conv2d_1 (Conv2D)               (None, 32, 32, 40)   10840       spatial_dropout2d[0][0]          
__________________________________________________________________________________________________
conv2d_7 (Conv2D)               (None, 32, 32, 40)   10840       spatial_dropout2d_3[0][0]        
__________________________________________________________________________________________________
batch_normalization_3 (BatchNor (None, 4, 3, 6, 50)  200         max_pooling3d_1[0][0]            
__________________________________________________________________________________________________
max_pooling2d (MaxPooling2D)    (None, 16, 16, 40)   0           conv2d_1[0][0]                   
__________________________________________________________________________________________________
max_pooling2d_2 (MaxPooling2D)  (None, 16, 16, 40)   0           conv2d_7[0][0]                   
__________________________________________________________________________________________________
conv3d_4 (Conv3D)               (None, 4, 3, 6, 50)  20050       batch_normalization_3[0][0]      
__________________________________________________________________________________________________
batch_normalization_13 (BatchNo (None, 16, 16, 40)   160         max_pooling2d[0][0]              
__________________________________________________________________________________________________
batch_normalization_22 (BatchNo (None, 16, 16, 40)   160         max_pooling2d_2[0][0]            
__________________________________________________________________________________________________
batch_normalization_4 (BatchNor (None, 4, 3, 6, 50)  200         conv3d_4[0][0]                   
__________________________________________________________________________________________________
conv2d_2 (Conv2D)               (None, 16, 16, 50)   18050       batch_normalization_13[0][0]     
__________________________________________________________________________________________________
conv2d_8 (Conv2D)               (None, 16, 16, 50)   18050       batch_normalization_22[0][0]     
__________________________________________________________________________________________________
spatial_dropout3d_2 (SpatialDro (None, 4, 3, 6, 50)  0           batch_normalization_4[0][0]      
__________________________________________________________________________________________________
batch_normalization_14 (BatchNo (None, 16, 16, 50)   200         conv2d_2[0][0]                   
__________________________________________________________________________________________________
batch_normalization_23 (BatchNo (None, 16, 16, 50)   200         conv2d_8[0][0]                   
__________________________________________________________________________________________________
conv3d_5 (Conv3D)               (None, 2, 2, 3, 50)  20050       spatial_dropout3d_2[0][0]        
__________________________________________________________________________________________________
spatial_dropout2d_1 (SpatialDro (None, 16, 16, 50)   0           batch_normalization_14[0][0]     2019-09-06 12:31:44.256254: I tensorflow/core/platform/cpu_feature_guard.cc:142] Your CPU supports instructions that this TensorFlow binary was not compiled to use: SSE4.1 SSE4.2 AVX AVX2 FMA
2019-09-06 12:31:44.635928: I tensorflow/core/platform/profile_utils/cpu_utils.cc:94] CPU Frequency: 2599825000 Hz
2019-09-06 12:31:44.649816: I tensorflow/compiler/xla/service/service.cc:168] XLA service 0x5575e7c01330 executing computations on platform Host. Devices:
…
2019-09-06 12:31:47.361289: I tensorflow/compiler/xla/service/service.cc:168] XLA service 0x5575e8735da0 executing computations on platform CUDA. Devices:
2019-09-06 12:31:47.361338: I tensorflow/compiler/xla/service/service.cc:175]   StreamExecutor device (0): Tesla P100-PCIE-16GB, Compute Capability 6.0
2019-09-06 12:32:18.571370: I tensorflow/stream_executor/platform/default/dso_loader.cc:42] Successfully opened dynamic library libcublas.so.9.0
2019-09-06 12:32:19.861111: I tensorflow/stream_executor/platform/default/dso_loader.cc:42] Successfully opened dynamic library libcudnn.so.7

__________________________________________________________________________________________________
spatial_dropout2d_4 (SpatialDro (None, 16, 16, 50)   0           batch_normalization_23[0][0]     
__________________________________________________________________________________________________
batch_normalization_5 (BatchNor (None, 2, 2, 3, 50)  200         conv3d_5[0][0]                   
__________________________________________________________________________________________________
conv2d_3 (Conv2D)               (None, 8, 8, 60)     27060       spatial_dropout2d_1[0][0]        
__________________________________________________________________________________________________
conv2d_9 (Conv2D)               (None, 8, 8, 60)     27060       spatial_dropout2d_4[0][0]        
__________________________________________________________________________________________________
conv3d_6 (Conv3D)               (None, 2, 2, 3, 50)  20050       batch_normalization_5[0][0]      
__________________________________________________________________________________________________
max_pooling2d_1 (MaxPooling2D)  (None, 4, 4, 60)     0           conv2d_3[0][0]                   
__________________________________________________________________________________________________
max_pooling2d_3 (MaxPooling2D)  (None, 4, 4, 60)     0           conv2d_9[0][0]                   
__________________________________________________________________________________________________
batch_normalization_6 (BatchNor (None, 2, 2, 3, 50)  200         conv3d_6[0][0]                   
__________________________________________________________________________________________________
batch_normalization_15 (BatchNo (None, 4, 4, 60)     240         max_pooling2d_1[0][0]            
__________________________________________________________________________________________________
batch_normalization_24 (BatchNo (None, 4, 4, 60)     240         max_pooling2d_3[0][0]            
__________________________________________________________________________________________________
spatial_dropout3d_3 (SpatialDro (None, 2, 2, 3, 50)  0           batch_normalization_6[0][0]      
__________________________________________________________________________________________________
conv2d_4 (Conv2D)               (None, 2, 2, 60)     32460       batch_normalization_15[0][0]     
__________________________________________________________________________________________________
conv2d_10 (Conv2D)              (None, 2, 2, 60)     32460       batch_normalization_24[0][0]     
__________________________________________________________________________________________________
conv3d_7 (Conv3D)               (None, 2, 2, 3, 40)  2040        spatial_dropout3d_3[0][0]        
__________________________________________________________________________________________________
batch_normalization_16 (BatchNo (None, 2, 2, 60)     240         conv2d_4[0][0]                   
__________________________________________________________________________________________________
batch_normalization_25 (BatchNo (None, 2, 2, 60)     240         conv2d_10[0][0]                  
__________________________________________________________________________________________________
flatten (Flatten)               (None, 480)          0           conv3d_7[0][0]                   
__________________________________________________________________________________________________
spatial_dropout2d_2 (SpatialDro (None, 2, 2, 60)     0           batch_normalization_16[0][0]     
__________________________________________________________________________________________________
spatial_dropout2d_5 (SpatialDro (None, 2, 2, 60)     0           batch_normalization_25[0][0]     
__________________________________________________________________________________________________
batch_normalization_7 (BatchNor (None, 480)          1920        flatten[0][0]                    
__________________________________________________________________________________________________
conv2d_5 (Conv2D)               (None, 2, 2, 30)     16230       spatial_dropout2d_2[0][0]        
__________________________________________________________________________________________________
conv2d_11 (Conv2D)              (None, 2, 2, 30)     16230       spatial_dropout2d_5[0][0]        
__________________________________________________________________________________________________
dense (Dense)                   (None, 350)          168350      batch_normalization_7[0][0]      
__________________________________________________________________________________________________
flatten_1 (Flatten)             (None, 120)          0           conv2d_5[0][0]                   
__________________________________________________________________________________________________
flatten_2 (Flatten)             (None, 120)          0           conv2d_11[0][0]                  
__________________________________________________________________________________________________
input_cali (InputLayer)         [(None, 6)]          0                                            
__________________________________________________________________________________________________
batch_normalization_8 (BatchNor (None, 350)          1400        dense[0][0]                      
__________________________________________________________________________________________________
batch_normalization_17 (BatchNo (None, 120)          480         flatten_1[0][0]                  
__________________________________________________________________________________________________
batch_normalization_26 (BatchNo (None, 120)          480         flatten_2[0][0]                  
__________________________________________________________________________________________________
batch_normalization_29 (BatchNo (None, 6)            24          input_cali[0][0]                 
__________________________________________________________________________________________________
dense_1 (Dense)                 (None, 250)          87750       batch_normalization_8[0][0]      
__________________________________________________________________________________________________
dense_4 (Dense)                 (None, 120)          14520       batch_normalization_17[0][0]     
__________________________________________________________________________________________________
dense_7 (Dense)                 (None, 120)          14520       batch_normalization_26[0][0]     
__________________________________________________________________________________________________
dense_10 (Dense)                (None, 20)           140         batch_normalization_29[0][0]     
__________________________________________________________________________________________________
batch_normalization_9 (BatchNor (None, 250)          1000        dense_1[0][0]                    
__________________________________________________________________________________________________
batch_normalization_18 (BatchNo (None, 120)          480         dense_4[0][0]                    
__________________________________________________________________________________________________
batch_normalization_27 (BatchNo (None, 120)          480         dense_7[0][0]                    
__________________________________________________________________________________________________
batch_normalization_30 (BatchNo (None, 20)           80          dense_10[0][0]                   
__________________________________________________________________________________________________
dense_2 (Dense)                 (None, 250)          62750       batch_normalization_9[0][0]      
__________________________________________________________________________________________________
dense_5 (Dense)                 (None, 120)          14520       batch_normalization_18[0][0]     
__________________________________________________________________________________________________
dense_8 (Dense)                 (None, 120)          14520       batch_normalization_27[0][0]     
__________________________________________________________________________________________________
dense_11 (Dense)                (None, 20)           420         batch_normalization_30[0][0]     
__________________________________________________________________________________________________
batch_normalization_10 (BatchNo (None, 250)          1000        dense_2[0][0]                    
__________________________________________________________________________________________________
batch_normalization_19 (BatchNo (None, 120)          480         dense_5[0][0]                    
__________________________________________________________________________________________________
batch_normalization_28 (BatchNo (None, 120)          480         dense_8[0][0]                    
__________________________________________________________________________________________________
batch_normalization_31 (BatchNo (None, 20)           80          dense_11[0][0]                   
__________________________________________________________________________________________________
dense_3 (Dense)                 (None, 200)          50200       batch_normalization_10[0][0]     
__________________________________________________________________________________________________
dense_6 (Dense)                 (None, 80)           9680        batch_normalization_19[0][0]     
__________________________________________________________________________________________________
dense_9 (Dense)                 (None, 80)           9680        batch_normalization_28[0][0]     
__________________________________________________________________________________________________
dense_12 (Dense)                (None, 20)           420         batch_normalization_31[0][0]     
__________________________________________________________________________________________________
concatenate (Concatenate)       (None, 380)          0           dense_3[0][0]                    
                                                                 dense_6[0][0]                    
                                                                 dense_9[0][0]                    
                                                                 dense_12[0][0]                   
__________________________________________________________________________________________________
batch_normalization_32 (BatchNo (None, 380)          1520        concatenate[0][0]                
__________________________________________________________________________________________________
dense_13 (Dense)                (None, 250)          95250       batch_normalization_32[0][0]     
__________________________________________________________________________________________________
batch_normalization_33 (BatchNo (None, 250)          1000        dense_13[0][0]                   
__________________________________________________________________________________________________
dropout (Dropout)               (None, 250)          0           batch_normalization_33[0][0]     
__________________________________________________________________________________________________
dense_14 (Dense)                (None, 150)          37650       dropout[0][0]                    
__________________________________________________________________________________________________
batch_normalization_34 (BatchNo (None, 150)          600         dense_14[0][0]                   
__________________________________________________________________________________________________
dense_15 (Dense)                (None, 100)          15100       batch_normalization_34[0][0]     
__________________________________________________________________________________________________
batch_normalization_35 (BatchNo (None, 100)          400         dense_15[0][0]                   
__________________________________________________________________________________________________
dropout_1 (Dropout)             (None, 100)          0           batch_normalization_35[0][0]     
__________________________________________________________________________________________________
dense_16 (Dense)                (None, 20)           2020        dropout_1[0][0]                  
__________________________________________________________________________________________________
main_output (Dense)             (None, 6)            126         dense_16[0][0]                   
==================================================================================================
Total params: 1,124,658
Trainable params: 1,117,142
Non-trainable params: 7,516
__________________________________________________________________________________________________


completely loaded...


Train on 4074 samples, validate on 1018 samples
Epoch 1/50
…
